…


1875/1875 [==============================] - 40s 21ms/step - loss: 0.0570 - accuracy: 0.9829 - val_loss: 0.0392 - val_accuracy: 0.9890
Epoch 10/10




















1875/1875 [==============================] - 40s 21ms/step - loss: 0.0557 - accuracy: 0.9835 - val_loss: 0.0472 - val_accuracy: 0.9887
Model: "vgg16"
_________________________________________________________________
 Layer (type)                Output Shape              Param #
=================================================================
 input_2 (InputLayer)        [(None, 224, 224, 3)]     0
 block1_conv1 (Conv2D)       (None, 224, 224, 64)      1792
 block1_conv2 (Conv2D)       (None, 224, 224, 64)      36928
 block1_pool (MaxPooling2D)  (None, 112, 112, 64)      0
 block2_conv1 (Conv2D)       (None, 112, 112, 128)     73856
 block2_conv2 (Conv2D)       (None, 112, 112, 128)     147584
 block2_pool (MaxPooling2D)  (None, 56, 56, 128)       0
 block3_conv1 (Conv2D)       (None, 56, 56, 256)       295168
 block3_conv2 (Conv2D)       (None, 56, 56, 256)       590080
 block3_conv3 (Conv2D)       (None, 56, 56, 256)       590080
 block3_pool (MaxPooling2D)  (None, 28, 28, 256)       0
 block4_conv1 (Conv2D)       (None, 28, 28, 512)       1180160
 block4_conv2 (Conv2D)       (None, 28, 28, 512)       2359808
 block4_conv3 (Conv2D)       (None, 28, 28, 512)       2359808
 block4_pool (MaxPooling2D)  (None, 14, 14, 512)       0
 block5_conv1 (Conv2D)       (None, 14, 14, 512)       2359808
 block5_conv2 (Conv2D)       (None, 14, 14, 512)       2359808
 block5_conv3 (Conv2D)       (None, 14, 14, 512)       2359808
 block5_pool (MaxPooling2D)  (None, 7, 7, 512)         0
 flatten (Flatten)           (None, 25088)             0
 fc1 (Dense)                 (None, 4096)              102764544
 fc2 (Dense)                 (None, 4096)              16781312
 predictions (Dense)         (None, 1000)              4097000
=================================================================
Total params: 138,357,544
Trainable params: 138,357,544
Non-trainable params: 0
_________________________________________________________________
Model: "vgg16"
_________________________________________________________________
 Layer (type)                Output Shape              Param #
=================================================================
 input_3 (InputLayer)        [(None, 224, 224, 3)]     0
 block1_conv1 (Conv2D)       (None, 224, 224, 64)      1792
 block1_conv2 (Conv2D)       (None, 224, 224, 64)      36928
 block1_pool (MaxPooling2D)  (None, 112, 112, 64)      0
 block2_conv1 (Conv2D)       (None, 112, 112, 128)     73856
 block2_conv2 (Conv2D)       (None, 112, 112, 128)     147584
 block2_pool (MaxPooling2D)  (None, 56, 56, 128)       0
 block3_conv1 (Conv2D)       (None, 56, 56, 256)       295168
 block3_conv2 (Conv2D)       (None, 56, 56, 256)       590080
 block3_conv3 (Conv2D)       (None, 56, 56, 256)       590080
 block3_pool (MaxPooling2D)  (None, 28, 28, 256)       0
 block4_conv1 (Conv2D)       (None, 28, 28, 512)       1180160
 block4_conv2 (Conv2D)       (None, 28, 28, 512)       2359808
 block4_conv3 (Conv2D)       (None, 28, 28, 512)       2359808
 block4_pool (MaxPooling2D)  (None, 14, 14, 512)       0
 block5_conv1 (Conv2D)       (None, 14, 14, 512)       2359808
 block5_conv2 (Conv2D)       (None, 14, 14, 512)       2359808
 block5_conv3 (Conv2D)       (None, 14, 14, 512)       2359808
 block5_pool (MaxPooling2D)  (None, 7, 7, 512)         0
 flatten (Flatten)           (None, 25088)             0
 fc1 (Dense)                 (None, 4096)              102764544
 fc2 (Dense)                 (None, 4096)              16781312
 predictions (Dense)         (None, 1000)              4097000
=================================================================
Total params: 138,357,544
Trainable params: 138,357,544
Non-trainable params: 0
_________________________________________________________________
Model: "sequential_18"
_________________________________________________________________
 Layer (type)                Output Shape              Param #
=================================================================
 block1_conv1 (Conv2D)       (None, 224, 224, 64)      1792
 block1_conv2 (Conv2D)       (None, 224, 224, 64)      36928
 block1_pool (MaxPooling2D)  (None, 112, 112, 64)      0
 block2_conv1 (Conv2D)       (None, 112, 112, 128)     73856
 block2_conv2 (Conv2D)       (None, 112, 112, 128)     147584
 block2_pool (MaxPooling2D)  (None, 56, 56, 128)       0
 block3_conv1 (Conv2D)       (None, 56, 56, 256)       295168
 block3_conv2 (Conv2D)       (None, 56, 56, 256)       590080
 block3_conv3 (Conv2D)       (None, 56, 56, 256)       590080
 block3_pool (MaxPooling2D)  (None, 28, 28, 256)       0
 block4_conv1 (Conv2D)       (None, 28, 28, 512)       1180160
 block4_conv2 (Conv2D)       (None, 28, 28, 512)       2359808
 block4_conv3 (Conv2D)       (None, 28, 28, 512)       2359808
 block4_pool (MaxPooling2D)  (None, 14, 14, 512)       0
 block5_conv1 (Conv2D)       (None, 14, 14, 512)       2359808
 block5_conv2 (Conv2D)       (None, 14, 14, 512)       2359808
 block5_conv3 (Conv2D)       (None, 14, 14, 512)       2359808
 block5_pool (MaxPooling2D)  (None, 7, 7, 512)         0
 flatten (Flatten)           (None, 25088)             0
 fc1 (Dense)                 (None, 4096)              102764544
 fc2 (Dense)                 (None, 4096)              16781312
=================================================================
Total params: 134,260,544
Trainable params: 134,260,544
Non-trainable params: 0
_________________________________________________________________
Model: "vgg16"
_________________________________________________________________
 Layer (type)                Output Shape              Param #
=================================================================
 input_4 (InputLayer)        [(None, 224, 224, 3)]     0
 block1_conv1 (Conv2D)       (None, 224, 224, 64)      1792
 block1_conv2 (Conv2D)       (None, 224, 224, 64)      36928
 block1_pool (MaxPooling2D)  (None, 112, 112, 64)      0
 block2_conv1 (Conv2D)       (None, 112, 112, 128)     73856
 block2_conv2 (Conv2D)       (None, 112, 112, 128)     147584
 block2_pool (MaxPooling2D)  (None, 56, 56, 128)       0
 block3_conv1 (Conv2D)       (None, 56, 56, 256)       295168
 block3_conv2 (Conv2D)       (None, 56, 56, 256)       590080
 block3_conv3 (Conv2D)       (None, 56, 56, 256)       590080
 block3_pool (MaxPooling2D)  (None, 28, 28, 256)       0
 block4_conv1 (Conv2D)       (None, 28, 28, 512)       1180160
 block4_conv2 (Conv2D)       (None, 28, 28, 512)       2359808
 block4_conv3 (Conv2D)       (None, 28, 28, 512)       2359808
 block4_pool (MaxPooling2D)  (None, 14, 14, 512)       0
 block5_conv1 (Conv2D)       (None, 14, 14, 512)       2359808
 block5_conv2 (Conv2D)       (None, 14, 14, 512)       2359808
 block5_conv3 (Conv2D)       (None, 14, 14, 512)       2359808
 block5_pool (MaxPooling2D)  (None, 7, 7, 512)         0
 flatten (Flatten)           (None, 25088)             0
 fc1 (Dense)                 (None, 4096)              102764544
 fc2 (Dense)                 (None, 4096)              16781312
 predictions (Dense)         (None, 1000)              4097000
=================================================================
Total params: 138,357,544
Trainable params: 138,357,544
Non-trainable params: 0
_________________________________________________________________
Model: "sequential_19"
_________________________________________________________________
 Layer (type)                Output Shape              Param #
=================================================================
 block1_conv1 (Conv2D)       (None, 224, 224, 64)      1792
 block1_conv2 (Conv2D)       (None, 224, 224, 64)      36928
 block1_pool (MaxPooling2D)  (None, 112, 112, 64)      0
 block2_conv1 (Conv2D)       (None, 112, 112, 128)     73856
 block2_conv2 (Conv2D)       (None, 112, 112, 128)     147584
 block2_pool (MaxPooling2D)  (None, 56, 56, 128)       0
 block3_conv1 (Conv2D)       (None, 56, 56, 256)       295168
 block3_conv2 (Conv2D)       (None, 56, 56, 256)       590080
 block3_conv3 (Conv2D)       (None, 56, 56, 256)       590080
 block3_pool (MaxPooling2D)  (None, 28, 28, 256)       0
 block4_conv1 (Conv2D)       (None, 28, 28, 512)       1180160
 block4_conv2 (Conv2D)       (None, 28, 28, 512)       2359808
 block4_conv3 (Conv2D)       (None, 28, 28, 512)       2359808
 block4_pool (MaxPooling2D)  (None, 14, 14, 512)       0
 block5_conv1 (Conv2D)       (None, 14, 14, 512)       2359808
 block5_conv2 (Conv2D)       (None, 14, 14, 512)       2359808
 block5_conv3 (Conv2D)       (None, 14, 14, 512)       2359808
 block5_pool (MaxPooling2D)  (None, 7, 7, 512)         0
 flatten (Flatten)           (None, 25088)             0
 fc1 (Dense)                 (None, 4096)              102764544
 fc2 (Dense)                 (None, 4096)              16781312
=================================================================
Total params: 134,260,544
Trainable params: 134,260,544
Non-trainable params: 0
_________________________________________________________________
Model: "sequential_19"
_________________________________________________________________
 Layer (type)                Output Shape              Param #
=================================================================
 block1_conv1 (Conv2D)       (None, 224, 224, 64)      1792
 block1_conv2 (Conv2D)       (None, 224, 224, 64)      36928
 block1_pool (MaxPooling2D)  (None, 112, 112, 64)      0
 block2_conv1 (Conv2D)       (None, 112, 112, 128)     73856
 block2_conv2 (Conv2D)       (None, 112, 112, 128)     147584
 block2_pool (MaxPooling2D)  (None, 56, 56, 128)       0
 block3_conv1 (Conv2D)       (None, 56, 56, 256)       295168
 block3_conv2 (Conv2D)       (None, 56, 56, 256)       590080
 block3_conv3 (Conv2D)       (None, 56, 56, 256)       590080
 block3_pool (MaxPooling2D)  (None, 28, 28, 256)       0
 block4_conv1 (Conv2D)       (None, 28, 28, 512)       1180160
 block4_conv2 (Conv2D)       (None, 28, 28, 512)       2359808
 block4_conv3 (Conv2D)       (None, 28, 28, 512)       2359808
 block4_pool (MaxPooling2D)  (None, 14, 14, 512)       0
 block5_conv1 (Conv2D)       (None, 14, 14, 512)       2359808
 block5_conv2 (Conv2D)       (None, 14, 14, 512)       2359808
 block5_conv3 (Conv2D)       (None, 14, 14, 512)       2359808
 block5_pool (MaxPooling2D)  (None, 7, 7, 512)         0
 flatten (Flatten)           (None, 25088)             0
 fc1 (Dense)                 (None, 4096)              102764544
 fc2 (Dense)                 (None, 4096)              16781312
=================================================================
Total params: 134,260,544
Trainable params: 134,260,544
Non-trainable params: 0
_________________________________________________________________
Model: "sequential_19"
_________________________________________________________________
 Layer (type)                Output Shape              Param #
=================================================================
 block1_conv1 (Conv2D)       (None, 224, 224, 64)      1792
 block1_conv2 (Conv2D)       (None, 224, 224, 64)      36928
 block1_pool (MaxPooling2D)  (None, 112, 112, 64)      0
 block2_conv1 (Conv2D)       (None, 112, 112, 128)     73856
 block2_conv2 (Conv2D)       (None, 112, 112, 128)     147584
 block2_pool (MaxPooling2D)  (None, 56, 56, 128)       0
 block3_conv1 (Conv2D)       (None, 56, 56, 256)       295168
 block3_conv2 (Conv2D)       (None, 56, 56, 256)       590080
 block3_conv3 (Conv2D)       (None, 56, 56, 256)       590080
 block3_pool (MaxPooling2D)  (None, 28, 28, 256)       0
 block4_conv1 (Conv2D)       (None, 28, 28, 512)       1180160
 block4_conv2 (Conv2D)       (None, 28, 28, 512)       2359808
 block4_conv3 (Conv2D)       (None, 28, 28, 512)       2359808
 block4_pool (MaxPooling2D)  (None, 14, 14, 512)       0
 block5_conv1 (Conv2D)       (None, 14, 14, 512)       2359808
 block5_conv2 (Conv2D)       (None, 14, 14, 512)       2359808
 block5_conv3 (Conv2D)       (None, 14, 14, 512)       2359808
 block5_pool (MaxPooling2D)  (None, 7, 7, 512)         0
 flatten (Flatten)           (None, 25088)             0
 fc1 (Dense)                 (None, 4096)              102764544
 fc2 (Dense)                 (None, 4096)              16781312
=================================================================
Total params: 134,260,544
Trainable params: 134,260,544
Non-trainable params: 0
_________________________________________________________________
Model: "sequential_19"
_________________________________________________________________
 Layer (type)                Output Shape              Param #
=================================================================
 block1_conv1 (Conv2D)       (None, 224, 224, 64)      1792
 block1_conv2 (Conv2D)       (None, 224, 224, 64)      36928
 block1_pool (MaxPooling2D)  (None, 112, 112, 64)      0
 block2_conv1 (Conv2D)       (None, 112, 112, 128)     73856
 block2_conv2 (Conv2D)       (None, 112, 112, 128)     147584
 block2_pool (MaxPooling2D)  (None, 56, 56, 128)       0
 block3_conv1 (Conv2D)       (None, 56, 56, 256)       295168
 block3_conv2 (Conv2D)       (None, 56, 56, 256)       590080
 block3_conv3 (Conv2D)       (None, 56, 56, 256)       590080
 block3_pool (MaxPooling2D)  (None, 28, 28, 256)       0
 block4_conv1 (Conv2D)       (None, 28, 28, 512)       1180160
 block4_conv2 (Conv2D)       (None, 28, 28, 512)       2359808
 block4_conv3 (Conv2D)       (None, 28, 28, 512)       2359808
 block4_pool (MaxPooling2D)  (None, 14, 14, 512)       0
 block5_conv1 (Conv2D)       (None, 14, 14, 512)       2359808
 block5_conv2 (Conv2D)       (None, 14, 14, 512)       2359808
 block5_conv3 (Conv2D)       (None, 14, 14, 512)       2359808
 block5_pool (MaxPooling2D)  (None, 7, 7, 512)         0
 flatten (Flatten)           (None, 25088)             0
 fc1 (Dense)                 (None, 4096)              102764544
 fc2 (Dense)                 (None, 4096)              16781312
=================================================================
Total params: 134,260,544
Trainable params: 0
Non-trainable params: 134,260,544
_________________________________________________________________
Model: "vgg16"
_________________________________________________________________
 Layer (type)                Output Shape              Param #
=================================================================
 input_5 (InputLayer)        [(None, 224, 224, 3)]     0
 block1_conv1 (Conv2D)       (None, 224, 224, 64)      1792
 block1_conv2 (Conv2D)       (None, 224, 224, 64)      36928
 block1_pool (MaxPooling2D)  (None, 112, 112, 64)      0
 block2_conv1 (Conv2D)       (None, 112, 112, 128)     73856
 block2_conv2 (Conv2D)       (None, 112, 112, 128)     147584
 block2_pool (MaxPooling2D)  (None, 56, 56, 128)       0
 block3_conv1 (Conv2D)       (None, 56, 56, 256)       295168
 block3_conv2 (Conv2D)       (None, 56, 56, 256)       590080
 block3_conv3 (Conv2D)       (None, 56, 56, 256)       590080
 block3_pool (MaxPooling2D)  (None, 28, 28, 256)       0
 block4_conv1 (Conv2D)       (None, 28, 28, 512)       1180160
 block4_conv2 (Conv2D)       (None, 28, 28, 512)       2359808
 block4_conv3 (Conv2D)       (None, 28, 28, 512)       2359808
 block4_pool (MaxPooling2D)  (None, 14, 14, 512)       0
 block5_conv1 (Conv2D)       (None, 14, 14, 512)       2359808
 block5_conv2 (Conv2D)       (None, 14, 14, 512)       2359808
 block5_conv3 (Conv2D)       (None, 14, 14, 512)       2359808
 block5_pool (MaxPooling2D)  (None, 7, 7, 512)         0
 flatten (Flatten)           (None, 25088)             0
 fc1 (Dense)                 (None, 4096)              102764544
 fc2 (Dense)                 (None, 4096)              16781312
 predictions (Dense)         (None, 1000)              4097000
=================================================================
Total params: 138,357,544
Trainable params: 138,357,544
Non-trainable params: 0
_________________________________________________________________
Model: "sequential_20"
_________________________________________________________________
 Layer (type)                Output Shape              Param #
=================================================================
 block1_conv1 (Conv2D)       (None, 224, 224, 64)      1792
 block1_conv2 (Conv2D)       (None, 224, 224, 64)      36928
 block1_pool (MaxPooling2D)  (None, 112, 112, 64)      0
 block2_conv1 (Conv2D)       (None, 112, 112, 128)     73856
 block2_conv2 (Conv2D)       (None, 112, 112, 128)     147584
 block2_pool (MaxPooling2D)  (None, 56, 56, 128)       0
 block3_conv1 (Conv2D)       (None, 56, 56, 256)       295168
 block3_conv2 (Conv2D)       (None, 56, 56, 256)       590080
 block3_conv3 (Conv2D)       (None, 56, 56, 256)       590080
 block3_pool (MaxPooling2D)  (None, 28, 28, 256)       0
 block4_conv1 (Conv2D)       (None, 28, 28, 512)       1180160
 block4_conv2 (Conv2D)       (None, 28, 28, 512)       2359808
 block4_conv3 (Conv2D)       (None, 28, 28, 512)       2359808
 block4_pool (MaxPooling2D)  (None, 14, 14, 512)       0
 block5_conv1 (Conv2D)       (None, 14, 14, 512)       2359808
 block5_conv2 (Conv2D)       (None, 14, 14, 512)       2359808
 block5_conv3 (Conv2D)       (None, 14, 14, 512)       2359808
 block5_pool (MaxPooling2D)  (None, 7, 7, 512)         0
 flatten (Flatten)           (None, 25088)             0
 fc1 (Dense)                 (None, 4096)              102764544
 fc2 (Dense)                 (None, 4096)              16781312
=================================================================
Total params: 134,260,544
Trainable params: 134,260,544
Non-trainable params: 0
_________________________________________________________________
Model: "sequential_20"
_________________________________________________________________
 Layer (type)                Output Shape              Param #
=================================================================
 block1_conv1 (Conv2D)       (None, 224, 224, 64)      1792
 block1_conv2 (Conv2D)       (None, 224, 224, 64)      36928
 block1_pool (MaxPooling2D)  (None, 112, 112, 64)      0
 block2_conv1 (Conv2D)       (None, 112, 112, 128)     73856
 block2_conv2 (Conv2D)       (None, 112, 112, 128)     147584
 block2_pool (MaxPooling2D)  (None, 56, 56, 128)       0
 block3_conv1 (Conv2D)       (None, 56, 56, 256)       295168
 block3_conv2 (Conv2D)       (None, 56, 56, 256)       590080
 block3_conv3 (Conv2D)       (None, 56, 56, 256)       590080
 block3_pool (MaxPooling2D)  (None, 28, 28, 256)       0
 block4_conv1 (Conv2D)       (None, 28, 28, 512)       1180160
 block4_conv2 (Conv2D)       (None, 28, 28, 512)       2359808
 block4_conv3 (Conv2D)       (None, 28, 28, 512)       2359808
 block4_pool (MaxPooling2D)  (None, 14, 14, 512)       0
 block5_conv1 (Conv2D)       (None, 14, 14, 512)       2359808
 block5_conv2 (Conv2D)       (None, 14, 14, 512)       2359808